node {
  name: "inputs/b_images"
  op: "Placeholder"
  attr {
    key: "dtype"
    value {
      type: DT_FLOAT
    }
  }
  attr {
    key: "shape"
    value {
      shape {
        dim {
          size: -1
        }
        dim {
          size: 64
        }
        dim {
          size: 64
        }
      }
    }
  }
}
node {
  name: "heatmaps/reshape/Reshape/shape"
  op: "Const"
  attr {
    key: "dtype"
    value {
      type: DT_INT32
    }
  }
  attr {
    key: "value"
    value {
      tensor {
        dtype: DT_INT32
        tensor_shape {
          dim {
            size: 4
          }
        }
        tensor_content: "\377\377\377\377@\000\000\000@\000\000\000\001\000\000\000"
      }
    }
  }
}
node {
  name: "heatmaps/reshape/Reshape"
  op: "Reshape"
  input: "inputs/b_images"
  input: "heatmaps/reshape/Reshape/shape"
  attr {
    key: "T"
    value {
      type: DT_FLOAT
    }
  }
  attr {
    key: "Tshape"
    value {
      type: DT_INT32
    }
  }
}
node {
  name: "heatmaps/firstConv/Variable"
  op: "Const"
  attr {
    key: "dtype"
    value {
      type: DT_FLOAT
    }
  }
  attr {
    key: "value"
    value {
      tensor {
        dtype: DT_FLOAT
        tensor_shape {
          dim {
            size: 5
          }
          dim {
            size: 5
          }
          dim {
            size: 1
          }
          dim {
            size: 32
          }
        }
        tensor_content: "…"
      }
    }
  }
}
node {
  name: "heatmaps/firstConv/Variable/read"
  op: "Identity"
  input: "heatmaps/firstConv/Variable"
  attr {
    key: "T"
    value {
      type: DT_FLOAT
    }
  }
  attr {
    key: "_class"
    value {
      list {
        s: "loc:@heatmaps/firstConv/Variable"
      }
    }
  }
}
node {
  name: "heatmaps/firstConv/Conv2D"
  op: "Conv2D"
  input: "heatmaps/reshape/Reshape"
  input: "heatmaps/firstConv/Variable/read"
  attr {
    key: "T"
    value {
      type: DT_FLOAT
    }
  }
  attr {
    key: "data_format"
    value {
      s: "NHWC"
    }
  }
  attr {
    key: "dilations"
    value {
      list {
        i: 1
        i: 1
        i: 1
        i: 1
      }
    }
  }
  attr {
    key: "padding"
    value {
      s: "SAME"
    }
  }
  attr {
    key: "strides"
    value {
      list {
        i: 1
        i: 1
        i: 1
        i: 1
      }
    }
  }
  attr {
    key: "use_cudnn_on_gpu"
    value {
      b: true
    }
  }
}
node {
  name: "heatmaps/firstConv/Relu"
  op: "Relu"
  input: "heatmaps/firstConv/Conv2D"
  attr {
    key: "T"
    value {
      type: DT_FLOAT
    }
  }
}
node {
  name: "heatmaps/firstPool/MaxPool"
  op: "MaxPool"
  input: "heatmaps/firstConv/Relu"
  attr {
    key: "T"
    value {
      type: DT_FLOAT
    }
  }
  attr {
    key: "data_format"
    value {
      s: "NHWC"
    }
  }
  attr {
    key: "ksize"
    value {
      list {
        i: 1
        i: 4
        i: 4
        i: 1
      }
    }
  }
  attr {
    key: "padding"
    value {
      s: "SAME"
    }
  }
  attr {
    key: "strides"
    value {
      list {
        i: 1
        i: 4
        i: 4
        i: 1
      }
    }
  }
}
node {
  name: "heatmaps/secondConv/Variable"
  op: "Const"
  attr {
    key: "dtype"
    value {
      type: DT_FLOAT
    }
  }
  attr {
    key: "value"
    value {
      tensor {
        dtype: DT_FLOAT
        tensor_shape {
          dim {
            size: 5
          }
          dim {
            size: 5
          }
          dim {
            size: 32
          }
          dim {
            size: 64
          }
        }
        tensor_content: "…"
      }
    }
  }
}
node {
  name: "heatmaps/secondConv/Variable/read"
  op: "Identity"
  input: "heatmaps/secondConv/Variable"
  attr {
    key: "T"
    value {
      type: DT_FLOAT
    }
  }
  attr {
    key: "_class"
    value {
      list {
        s: "loc:@heatmaps/secondConv/Variable"
      }
    }
  }
}
node {
  name: "heatmaps/secondConv/Conv2D"
  op: "Conv2D"
  input: "heatmaps/firstPool/MaxPool"
  input: "heatmaps/secondConv/Variable/read"
  attr {
    key: "T"
    value {
      type: DT_FLOAT
    }
  }
  attr {
    key: "data_format"
    value {
      s: "NHWC"
    }
  }
  attr {
    key: "dilations"
    value {
      list {
        i: 1
        i: 1
        i: 1
        i: 1
      }
    }
  }
  attr {
    key: "padding"
    value {
      s: "SAME"
    }
  }
  attr {
    key: "strides"
    value {
      list {
        i: 1
        i: 1
        i: 1
        i: 1
      }
    }
  }
  attr {
    key: "use_cudnn_on_gpu"
    value {
      b: true
    }
  }
}
node {
  name: "heatmaps/secondConv/Relu"
  op: "Relu"
  input: "heatmaps/secondConv/Conv2D"
  attr {
    key: "T"
    value {
      type: DT_FLOAT
    }
  }
}
node {
  name: "heatmaps/secondPool/MaxPool"
  op: "MaxPool"
  input: "heatmaps/secondConv/Relu"
  attr {
    key: "T"
    value {
      type: DT_FLOAT
    }
  }
  attr {
    key: "data_format"
    value {
      s: "NHWC"
    }
  }
  attr {
    key: "ksize"
    value {
      list {
        i: 1
        i: 2
        i: 2
        i: 1
      }
    }
  }
  attr {
    key: "padding"
    value {
      s: "SAME"
    }
  }
  attr {
    key: "strides"
    value {
      list {
        i: 1
        i: 2
        i: 2
        i: 1
      }
    }
  }
}
node {
  name: "conv2d_transpose/kernel"
  op: "Const"
  attr {
    key: "dtype"
    value {
      type: DT_FLOAT
    }
  }
  attr {
    key: "value"
    value {
      tensor {
        dtype: DT_FLOAT
        tensor_shape {
          dim {
            size: 3
          }
          dim {
            size: 3
          }
          dim {
            size: 32
          }
          dim {
            size: 64
          }
        }
        tensor_content: "…"
      }
    }
  }
}
node {
  name: "conv2d_transpose/kernel/read"
  op: "Identity"
  input: "conv2d_transpose/kernel"
  attr {
    key: "T"
    value {
      type: DT_FLOAT
    }
  }
  attr {
    key: "_class"
    value {
      list {
        s: "loc:@conv2d_transpose/kernel"
      }
    }
  }
}
node {
  name: "conv2d_transpose/bias"
  op: "Const"
  attr {
    key: "dtype"
    value {
      type: DT_FLOAT
    }
  }
  attr {
    key: "value"
    value {
      tensor {
        dtype: DT_FLOAT
        tensor_shape {
          dim {
            size: 32
          }
        }
        tensor_content: "…"
      }
    }
  }
}
node {
  name: "conv2d_transpose/bias/read"
  op: "Identity"
  input: "conv2d_transpose/bias"
  attr {
    key: "T"
    value {
      type: DT_FLOAT
    }
  }
  attr {
    key: "_class"
    value {
      list {
        s: "loc:@conv2d_transpose/bias"
      }
    }
  }
}
node {
  name: "heatmaps/secondUpconv/myConv2dTranspose/conv2d_transpose/Shape"
  op: "Shape"
  input: "heatmaps/secondPool/MaxPool"
  attr {
    key: "T"
    value {
      type: DT_FLOAT
    }
  }
  attr {
    key: "out_type"
    value {
      type: DT_INT32
    }
  }
}
node {
  name: "heatmaps/secondUpconv/myConv2dTranspose/conv2d_transpose/strided_slice/stack"
  op: "Const"
  attr {
    key: "dtype"
    value {
      type: DT_INT32
    }
  }
  attr {
    key: "value"
    value {
      tensor {
        dtype: DT_INT32
        tensor_shape {
          dim {
            size: 1
          }
        }
        int_val: 0
      }
    }
  }
}
node {
  name: "heatmaps/secondUpconv/myConv2dTranspose/conv2d_transpose/strided_slice/stack_1"
  op: "Const"
  attr {
    key: "dtype"
    value {
      type: DT_INT32
    }
  }
  attr {
    key: "value"
    value {
      tensor {
        dtype: DT_INT32
        tensor_shape {
          dim {
            size: 1
          }
        }
        int_val: 1
      }
    }
  }
}
node {
  name: "heatmaps/secondUpconv/myConv2dTranspose/conv2d_transpose/strided_slice/stack_2"
  op: "Const"
  attr {
    key: "dtype"
    value {
      type: DT_INT32
    }
  }
  attr {
    key: "value"
    value {
      tensor {
        dtype: DT_INT32
        tensor_shape {
          dim {
            size: 1
          }
        }
        int_val: 1
      }
    }
  }
}
node {
  name: "heatmaps/secondUpconv/myConv2dTranspose/conv2d_transpose/strided_slice"
  op: "StridedSlice"
  input: "heatmaps/secondUpconv/myConv2dTranspose/conv2d_transpose/Shape"
  input: "heatmaps/secondUpconv/myConv2dTranspose/conv2d_transpose/strided_slice/stack"
  input: "heatmaps/secondUpconv/myConv2dTranspose/conv2d_transpose/strided_slice/stack_1"
  input: "heatmaps/secondUpconv/myConv2dTranspose/conv2d_transpose/strided_slice/stack_2"
  attr {
    key: "Index"
    value {
      type: DT_INT32
    }
  }
  attr {
    key: "T"
    value {
      type: DT_INT32
    }
  }
  attr {
    key: "begin_mask"
    value {
      i: 0
    }
  }
  attr {
    key: "ellipsis_mask"
    value {
      i: 0
    }
  }
  attr {
    key: "end_mask"
    value {
      i: 0
    }
  }
  attr {
    key: "new_axis_mask"
    value {
      i: 0
    }
  }
  attr {
    key: "shrink_axis_mask"
    value {
      i: 1
    }
  }
}
node {
  name: "heatmaps/secondUpconv/myConv2dTranspose/conv2d_transpose/strided_slice_1/stack"
  op: "Const"
  attr {
    key: "dtype"
    value {
      type: DT_INT32
    }
  }
  attr {
    key: "value"
    value {
      tensor {
        dtype: DT_INT32
        tensor_shape {
          dim {
            size: 1
          }
        }
        int_val: 1
      }
    }
  }
}
node {
  name: "heatmaps/secondUpconv/myConv2dTranspose/conv2d_transpose/strided_slice_1/stack_1"
  op: "Const"
  attr {
    key: "dtype"
    value {
      type: DT_INT32
    }
  }
  attr {
    key: "value"
    value {
      tensor {
        dtype: DT_INT32
        tensor_shape {
          dim {
            size: 1
          }
        }
        int_val: 2
      }
    }
  }
}
node {
  name: "heatmaps/secondUpconv/myConv2dTranspose/conv2d_transpose/strided_slice_1/stack_2"
  op: "Const"
  attr {
    key: "dtype"
    value {
      type: DT_INT32
    }
  }
  attr {
    key: "value"
    value {
      tensor {
        dtype: DT_INT32
        tensor_shape {
          dim {
            size: 1
          }
        }
        int_val: 1
      }
    }
  }
}
node {
  name: "heatmaps/secondUpconv/myConv2dTranspose/conv2d_transpose/strided_slice_1"
  op: "StridedSlice"
  input: "heatmaps/secondUpconv/myConv2dTranspose/conv2d_transpose/Shape"
  input: "heatmaps/secondUpconv/myConv2dTranspose/conv2d_transpose/strided_slice_1/stack"
  input: "heatmaps/secondUpconv/myConv2dTranspose/conv2d_transpose/strided_slice_1/stack_1"
  input: "heatmaps/secondUpconv/myConv2dTranspose/conv2d_transpose/strided_slice_1/stack_2"
  attr {
    key: "Index"
    value {
      type: DT_INT32
    }
  }
  attr {
    key: "T"
    value {
      type: DT_INT32
    }
  }
  attr {
    key: "begin_mask"
    value {
      i: 0
    }
  }
  attr {
    key: "ellipsis_mask"
    value {
      i: 0
    }
  }
  attr {
    key: "end_mask"
    value {
      i: 0
    }
  }
  attr {
    key: "new_axis_mask"
    value {
      i: 0
    }
  }
  attr {
    key: "shrink_axis_mask"
    value {
      i: 1
    }
  }
}
node {
  name: "heatmaps/secondUpconv/myConv2dTranspose/conv2d_transpose/strided_slice_2/stack"
  op: "Const"
  attr {
    key: "dtype"
    value {
      type: DT_INT32
    }
  }
  attr {
    key: "value"
    value {
      tensor {
        dtype: DT_INT32
        tensor_shape {
          dim {
            size: 1
          }
        }
        int_val: 2
      }
    }
  }
}
node {
  name: "heatmaps/secondUpconv/myConv2dTranspose/conv2d_transpose/strided_slice_2/stack_1"
  op: "Const"
  attr {
    key: "dtype"
    value {
      type: DT_INT32
    }
  }
  attr {
    key: "value"
    value {
      tensor {
        dtype: DT_INT32
        tensor_shape {
          dim {
            size: 1
          }
        }
        int_val: 3
      }
    }
  }
}
node {
  name: "heatmaps/secondUpconv/myConv2dTranspose/conv2d_transpose/strided_slice_2/stack_2"
  op: "Const"
  attr {
    key: "dtype"
    value {
      type: DT_INT32
    }
  }
  attr {
    key: "value"
    value {
      tensor {
        dtype: DT_INT32
        tensor_shape {
          dim {
            size: 1
          }
        }
        int_val: 1
      }
    }
  }
}
node {
  name: "heatmaps/secondUpconv/myConv2dTranspose/conv2d_transpose/strided_slice_2"
  op: "StridedSlice"
  input: "heatmaps/secondUpconv/myConv2dTranspose/conv2d_transpose/Shape"
  input: "heatmaps/secondUpconv/myConv2dTranspose/conv2d_transpose/strided_slice_2/stack"
  input: "heatmaps/secondUpconv/myConv2dTranspose/conv2d_transpose/strided_slice_2/stack_1"
  input: "heatmaps/secondUpconv/myConv2dTranspose/conv2d_transpose/strided_slice_2/stack_2"
  attr {
    key: "Index"
    value {
      type: DT_INT32
    }
  }
  attr {
    key: "T"
    value {
      type: DT_INT32
    }
  }
  attr {
    key: "begin_mask"
    value {
      i: 0
    }
  }
  attr {
    key: "ellipsis_mask"
    value {
      i: 0
    }
  }
  attr {
    key: "end_mask"
    value {
      i: 0
    }
  }
  attr {
    key: "new_axis_mask"
    value {
      i: 0
    }
  }
  attr {
    key: "shrink_axis_mask"
    value {
      i: 1
    }
  }
}
node {
  name: "heatmaps/secondUpconv/myConv2dTranspose/conv2d_transpose/mul/y"
  op: "Const"
  attr {
    key: "dtype"
    value {
      type: DT_INT32
    }
  }
  attr {
    key: "value"
    value {
      tensor {
        dtype: DT_INT32
        tensor_shape {
        }
        int_val: 2
      }
    }
  }
}
node {
  name: "heatmaps/secondUpconv/myConv2dTranspose/conv2d_transpose/mul"
  op: "Mul"
  input: "heatmaps/secondUpconv/myConv2dTranspose/conv2d_transpose/strided_slice_1"
  input: "heatmaps/secondUpconv/myConv2dTranspose/conv2d_transpose/mul/y"
  attr {
    key: "T"
    value {
      type: DT_INT32
    }
  }
}
node {
  name: "heatmaps/secondUpconv/myConv2dTranspose/conv2d_transpose/mul_1/y"
  op: "Const"
  attr {
    key: "dtype"
    value {
      type: DT_INT32
    }
  }
  attr {
    key: "value"
    value {
      tensor {
        dtype: DT_INT32
        tensor_shape {
        }
        int_val: 2
      }
    }
  }
}
node {
  name: "heatmaps/secondUpconv/myConv2dTranspose/conv2d_transpose/mul_1"
  op: "Mul"
  input: "heatmaps/secondUpconv/myConv2dTranspose/conv2d_transpose/strided_slice_2"
  input: "heatmaps/secondUpconv/myConv2dTranspose/conv2d_transpose/mul_1/y"
  attr {
    key: "T"
    value {
      type: DT_INT32
    }
  }
}
node {
  name: "heatmaps/secondUpconv/myConv2dTranspose/conv2d_transpose/stack/3"
  op: "Const"
  attr {
    key: "dtype"
    value {
      type: DT_INT32
    }
  }
  attr {
    key: "value"
    value {
      tensor {
        dtype: DT_INT32
        tensor_shape {
        }
        int_val: 32
      }
    }
  }
}
node {
  name: "heatmaps/secondUpconv/myConv2dTranspose/conv2d_transpose/stack"
  op: "Pack"
  input: "heatmaps/secondUpconv/myConv2dTranspose/conv2d_transpose/strided_slice"
  input: "heatmaps/secondUpconv/myConv2dTranspose/conv2d_transpose/mul"
  input: "heatmaps/secondUpconv/myConv2dTranspose/conv2d_transpose/mul_1"
  input: "heatmaps/secondUpconv/myConv2dTranspose/conv2d_transpose/stack/3"
  attr {
    key: "N"
    value {
      i: 4
    }
  }
  attr {
    key: "T"
    value {
      type: DT_INT32
    }
  }
  attr {
    key: "axis"
    value {
      i: 0
    }
  }
}
node {
  name: "heatmaps/secondUpconv/myConv2dTranspose/conv2d_transpose/conv2d_transpose"
  op: "Conv2DBackpropInput"
  input: "heatmaps/secondUpconv/myConv2dTranspose/conv2d_transpose/stack"
  input: "conv2d_transpose/kernel/read"
  input: "heatmaps/secondPool/MaxPool"
  attr {
    key: "T"
    value {
      type: DT_FLOAT
    }
  }
  attr {
    key: "data_format"
    value {
      s: "NHWC"
    }
  }
  attr {
    key: "dilations"
    value {
      list {
        i: 1
        i: 1
        i: 1
        i: 1
      }
    }
  }
  attr {
    key: "padding"
    value {
      s: "SAME"
    }
  }
  attr {
    key: "strides"
    value {
      list {
        i: 1
        i: 2
        i: 2
        i: 1
      }
    }
  }
  attr {
    key: "use_cudnn_on_gpu"
    value {
      b: true
    }
  }
}
node {
  name: "heatmaps/secondUpconv/myConv2dTranspose/conv2d_transpose/BiasAdd"
  op: "BiasAdd"
  input: "heatmaps/secondUpconv/myConv2dTranspose/conv2d_transpose/conv2d_transpose"
  input: "conv2d_transpose/bias/read"
  attr {
    key: "T"
    value {
      type: DT_FLOAT
    }
  }
  attr {
    key: "data_format"
    value {
      s: "NHWC"
    }
  }
}
node {
  name: "heatmaps/secondUpconv/Relu"
  op: "Relu"
  input: "heatmaps/secondUpconv/myConv2dTranspose/conv2d_transpose/BiasAdd"
  attr {
    key: "T"
    value {
      type: DT_FLOAT
    }
  }
}
node {
  name: "heatmaps/firstUpconv/concat/axis"
  op: "Const"
  attr {
    key: "dtype"
    value {
      type: DT_INT32
    }
  }
  attr {
    key: "value"
    value {
      tensor {
        dtype: DT_INT32
        tensor_shape {
        }
        int_val: 3
      }
    }
  }
}
node {
  name: "heatmaps/firstUpconv/concat"
  op: "ConcatV2"
  input: "heatmaps/secondUpconv/Relu"
  input: "heatmaps/firstPool/MaxPool"
  input: "heatmaps/firstUpconv/concat/axis"
  attr {
    key: "N"
    value {
      i: 2
    }
  }
  attr {
    key: "T"
    value {
      type: DT_FLOAT
    }
  }
  attr {
    key: "Tidx"
    value {
      type: DT_INT32
    }
  }
}
node {
  name: "conv2d_transpose_1/kernel"
  op: "Const"
  attr {
    key: "dtype"
    value {
      type: DT_FLOAT
    }
  }
  attr {
    key: "value"
    value {
      tensor {
        dtype: DT_FLOAT
        tensor_shape {
          dim {
            size: 5
          }
          dim {
            size: 5
          }
          dim {
            size: 1
          }
          dim {
            size: 64
          }
        }
        tensor_content: "…"
      }
    }
  }
}
node {
  name: "conv2d_transpose_1/kernel/read"
  op: "Identity"
  input: "conv2d_transpose_1/kernel"
  attr {
    key: "T"
    value {
      type: DT_FLOAT
    }
  }
  attr {
    key: "_class"
    value {
      list {
        s: "loc:@conv2d_transpose_1/kernel"
      }
    }
  }
}
node {
  name: "conv2d_transpose_1/bias"
  op: "Const"
  attr {
    key: "dtype"
    value {
      type: DT_FLOAT
    }
  }
  attr {
    key: "value"
    value {
      tensor {
        dtype: DT_FLOAT
        tensor_shape {
          dim {
            size: 1
          }
        }
        float_val: 0.17436380684375763
      }
    }
  }
}
node {
  name: "conv2d_transpose_1/bias/read"
  op: "Identity"
  input: "conv2d_transpose_1/bias"
  attr {
    key: "T"
    value {
      type: DT_FLOAT
    }
  }
  attr {
    key: "_class"
    value {
      list {
        s: "loc:@conv2d_transpose_1/bias"
      }
    }
  }
}
node {
  name: "heatmaps/firstUpconv/myConv2dTranspose/conv2d_transpose/Shape"
  op: "Shape"
  input: "heatmaps/firstUpconv/concat"
  attr {
    key: "T"
    value {
      type: DT_FLOAT
    }
  }
  attr {
    key: "out_type"
    value {
      type: DT_INT32
    }
  }
}
node {
  name: "heatmaps/firstUpconv/myConv2dTranspose/conv2d_transpose/strided_slice/stack"
  op: "Const"
  attr {
    key: "dtype"
    value {
      type: DT_INT32
    }
  }
  attr {
    key: "value"
    value {
      tensor {
        dtype: DT_INT32
        tensor_shape {
          dim {
            size: 1
          }
        }
        int_val: 0
      }
    }
  }
}
node {
  name: "heatmaps/firstUpconv/myConv2dTranspose/conv2d_transpose/strided_slice/stack_1"
  op: "Const"
  attr {
    key: "dtype"
    value {
      type: DT_INT32
    }
  }
  attr {
    key: "value"
    value {
      tensor {
        dtype: DT_INT32
        tensor_shape {
          dim {
            size: 1
          }
        }
        int_val: 1
      }
    }
  }
}
node {
  name: "heatmaps/firstUpconv/myConv2dTranspose/conv2d_transpose/strided_slice/stack_2"
  op: "Const"
  attr {
    key: "dtype"
    value {
      type: DT_INT32
    }
  }
  attr {
    key: "value"
    value {
      tensor {
        dtype: DT_INT32
        tensor_shape {
          dim {
            size: 1
          }
        }
        int_val: 1
      }
    }
  }
}
node {
  name: "heatmaps/firstUpconv/myConv2dTranspose/conv2d_transpose/strided_slice"
  op: "StridedSlice"
  input: "heatmaps/firstUpconv/myConv2dTranspose/conv2d_transpose/Shape"
  input: "heatmaps/firstUpconv/myConv2dTranspose/conv2d_transpose/strided_slice/stack"
  input: "heatmaps/firstUpconv/myConv2dTranspose/conv2d_transpose/strided_slice/stack_1"
  input: "heatmaps/firstUpconv/myConv2dTranspose/conv2d_transpose/strided_slice/stack_2"
  attr {
    key: "Index"
    value {
      type: DT_INT32
    }
  }
  attr {
    key: "T"
    value {
      type: DT_INT32
    }
  }
  attr {
    key: "begin_mask"
    value {
      i: 0
    }
  }
  attr {
    key: "ellipsis_mask"
    value {
      i: 0
    }
  }
  attr {
    key: "end_mask"
    value {
      i: 0
    }
  }
  attr {
    key: "new_axis_mask"
    value {
      i: 0
    }
  }
  attr {
    key: "shrink_axis_mask"
    value {
      i: 1
    }
  }
}
node {
  name: "heatmaps/firstUpconv/myConv2dTranspose/conv2d_transpose/strided_slice_1/stack"
  op: "Const"
  attr {
    key: "dtype"
    value {
      type: DT_INT32
    }
  }
  attr {
    key: "value"
    value {
      tensor {
        dtype: DT_INT32
        tensor_shape {
          dim {
            size: 1
          }
        }
        int_val: 1
      }
    }
  }
}
node {
  name: "heatmaps/firstUpconv/myConv2dTranspose/conv2d_transpose/strided_slice_1/stack_1"
  op: "Const"
  attr {
    key: "dtype"
    value {
      type: DT_INT32
    }
  }
  attr {
    key: "value"
    value {
      tensor {
        dtype: DT_INT32
        tensor_shape {
          dim {
            size: 1
          }
        }
        int_val: 2
      }
    }
  }
}
node {
  name: "heatmaps/firstUpconv/myConv2dTranspose/conv2d_transpose/strided_slice_1/stack_2"
  op: "Const"
  attr {
    key: "dtype"
    value {
      type: DT_INT32
    }
  }
  attr {
    key: "value"
    value {
      tensor {
        dtype: DT_INT32
        tensor_shape {
          dim {
            size: 1
          }
        }
        int_val: 1
      }
    }
  }
}
node {
  name: "heatmaps/firstUpconv/myConv2dTranspose/conv2d_transpose/strided_slice_1"
  op: "StridedSlice"
  input: "heatmaps/firstUpconv/myConv2dTranspose/conv2d_transpose/Shape"
  input: "heatmaps/firstUpconv/myConv2dTranspose/conv2d_transpose/strided_slice_1/stack"
  input: "heatmaps/firstUpconv/myConv2dTranspose/conv2d_transpose/strided_slice_1/stack_1"
  input: "heatmaps/firstUpconv/myConv2dTranspose/conv2d_transpose/strided_slice_1/stack_2"
  attr {
    key: "Index"
    value {
      type: DT_INT32
    }
  }
  attr {
    key: "T"
    value {
      type: DT_INT32
    }
  }
  attr {
    key: "begin_mask"
    value {
      i: 0
    }
  }
  attr {
    key: "ellipsis_mask"
    value {
      i: 0
    }
  }
  attr {
    key: "end_mask"
    value {
      i: 0
    }
  }
  attr {
    key: "new_axis_mask"
    value {
      i: 0
    }
  }
  attr {
    key: "shrink_axis_mask"
    value {
      i: 1
    }
  }
}
node {
  name: "heatmaps/firstUpconv/myConv2dTranspose/conv2d_transpose/strided_slice_2/stack"
  op: "Const"
  attr {
    key: "dtype"
    value {
      type: DT_INT32
    }
  }
  attr {
    key: "value"
    value {
      tensor {
        dtype: DT_INT32
        tensor_shape {
          dim {
            size: 1
          }
        }
        int_val: 2
      }
    }
  }
}
node {
  name: "heatmaps/firstUpconv/myConv2dTranspose/conv2d_transpose/strided_slice_2/stack_1"
  op: "Const"
  attr {
    key: "dtype"
    value {
      type: DT_INT32
    }
  }
  attr {
    key: "value"
    value {
      tensor {
        dtype: DT_INT32
        tensor_shape {
          dim {
            size: 1
          }
        }
        int_val: 3
      }
    }
  }
}
node {
  name: "heatmaps/firstUpconv/myConv2dTranspose/conv2d_transpose/strided_slice_2/stack_2"
  op: "Const"
  attr {
    key: "dtype"
    value {
      type: DT_INT32
    }
  }
  attr {
    key: "value"
    value {
      tensor {
        dtype: DT_INT32
        tensor_shape {
          dim {
            size: 1
          }
        }
        int_val: 1
      }
    }
  }
}
node {
  name: "heatmaps/firstUpconv/myConv2dTranspose/conv2d_transpose/strided_slice_2"
  op: "StridedSlice"
  input: "heatmaps/firstUpconv/myConv2dTranspose/conv2d_transpose/Shape"
  input: "heatmaps/firstUpconv/myConv2dTranspose/conv2d_transpose/strided_slice_2/stack"
  input: "heatmaps/firstUpconv/myConv2dTranspose/conv2d_transpose/strided_slice_2/stack_1"
  input: "heatmaps/firstUpconv/myConv2dTranspose/conv2d_transpose/strided_slice_2/stack_2"
  attr {
    key: "Index"
    value {
      type: DT_INT32
    }
  }
  attr {
    key: "T"
    value {
      type: DT_INT32
    }
  }
  attr {
    key: "begin_mask"
    value {
      i: 0
    }
  }
  attr {
    key: "ellipsis_mask"
    value {
      i: 0
    }
  }
  attr {
    key: "end_mask"
    value {
      i: 0
    }
  }
  attr {
    key: "new_axis_mask"
    value {
      i: 0
    }
  }
  attr {
    key: "shrink_axis_mask"
    value {
      i: 1
    }
  }
}
node {
  name: "heatmaps/firstUpconv/myConv2dTranspose/conv2d_transpose/mul/y"
  op: "Const"
  attr {
    key: "dtype"
    value {
      type: DT_INT32
    }
  }
  attr {
    key: "value"
    value {
      tensor {
        dtype: DT_INT32
        tensor_shape {
        }
        int_val: 4
      }
    }
  }
}
node {
  name: "heatmaps/firstUpconv/myConv2dTranspose/conv2d_transpose/mul"
  op: "Mul"
  input: "heatmaps/firstUpconv/myConv2dTranspose/conv2d_transpose/strided_slice_1"
  input: "heatmaps/firstUpconv/myConv2dTranspose/conv2d_transpose/mul/y"
  attr {
    key: "T"
    value {
      type: DT_INT32
    }
  }
}
node {
  name: "heatmaps/firstUpconv/myConv2dTranspose/conv2d_transpose/mul_1/y"
  op: "Const"
  attr {
    key: "dtype"
    value {
      type: DT_INT32
    }
  }
  attr {
    key: "value"
    value {
      tensor {
        dtype: DT_INT32
        tensor_shape {
        }
        int_val: 4
      }
    }
  }
}
node {
  name: "heatmaps/firstUpconv/myConv2dTranspose/conv2d_transpose/mul_1"
  op: "Mul"
  input: "heatmaps/firstUpconv/myConv2dTranspose/conv2d_transpose/strided_slice_2"
  input: "heatmaps/firstUpconv/myConv2dTranspose/conv2d_transpose/mul_1/y"
  attr {
    key: "T"
    value {
      type: DT_INT32
    }
  }
}
node {
  name: "heatmaps/firstUpconv/myConv2dTranspose/conv2d_transpose/stack/3"
  op: "Const"
  attr {
    key: "dtype"
    value {
      type: DT_INT32
    }
  }
  attr {
    key: "value"
    value {
      tensor {
        dtype: DT_INT32
        tensor_shape {
        }
        int_val: 1
      }
    }
  }
}
node {
  name: "heatmaps/firstUpconv/myConv2dTranspose/conv2d_transpose/stack"
  op: "Pack"
  input: "heatmaps/firstUpconv/myConv2dTranspose/conv2d_transpose/strided_slice"
  input: "heatmaps/firstUpconv/myConv2dTranspose/conv2d_transpose/mul"
  input: "heatmaps/firstUpconv/myConv2dTranspose/conv2d_transpose/mul_1"
  input: "heatmaps/firstUpconv/myConv2dTranspose/conv2d_transpose/stack/3"
  attr {
    key: "N"
    value {
      i: 4
    }
  }
  attr {
    key: "T"
    value {
      type: DT_INT32
    }
  }
  attr {
    key: "axis"
    value {
      i: 0
    }
  }
}
node {
  name: "heatmaps/firstUpconv/myConv2dTranspose/conv2d_transpose/conv2d_transpose"
  op: "Conv2DBackpropInput"
  input: "heatmaps/firstUpconv/myConv2dTranspose/conv2d_transpose/stack"
  input: "conv2d_transpose_1/kernel/read"
  input: "heatmaps/firstUpconv/concat"
  attr {
    key: "T"
    value {
      type: DT_FLOAT
    }
  }
  attr {
    key: "data_format"
    value {
      s: "NHWC"
    }
  }
  attr {
    key: "dilations"
    value {
      list {
        i: 1
        i: 1
        i: 1
        i: 1
      }
    }
  }
  attr {
    key: "padding"
    value {
      s: "SAME"
    }
  }
  attr {
    key: "strides"
    value {
      list {
        i: 1
        i: 4
        i: 4
        i: 1
      }
    }
  }
  attr {
    key: "use_cudnn_on_gpu"
    value {
      b: true
    }
  }
}
node {
  name: "heatmaps/firstUpconv/myConv2dTranspose/conv2d_transpose/BiasAdd"
  op: "BiasAdd"
  input: "heatmaps/firstUpconv/myConv2dTranspose/conv2d_transpose/conv2d_transpose"
  input: "conv2d_transpose_1/bias/read"
  attr {
    key: "T"
    value {
      type: DT_FLOAT
    }
  }
  attr {
    key: "data_format"
    value {
      s: "NHWC"
    }
  }
}
node {
  name: "heatmaps/firstUpconv/Relu"
  op: "Relu"
  input: "heatmaps/firstUpconv/myConv2dTranspose/conv2d_transpose/BiasAdd"
  attr {
    key: "T"
    value {
      type: DT_FLOAT
    }
  }
}
node {
  name: "heatmaps/b_heatmaps/shape"
  op: "Const"
  attr {
    key: "dtype"
    value {
      type: DT_INT32
    }
  }
  attr {
    key: "value"
    value {
      tensor {
        dtype: DT_INT32
        tensor_shape {
          dim {
            size: 3
          }
        }
        tensor_content: "\377\377\377\377@\000\000\000@\000\000\000"
      }
    }
  }
}
node {
  name: "heatmaps/b_heatmaps"
  op: "Reshape"
  input: "heatmaps/firstUpconv/Relu"
  input: "heatmaps/b_heatmaps/shape"
  attr {
    key: "T"
    value {
      type: DT_FLOAT
    }
  }
  attr {
    key: "Tshape"
    value {
      type: DT_INT32
    }
  }
}
library {
}
